model/model_ckpt/model_final.pth (torch, 262609 bytes, 36 tensors)

traj_subgraphNet.sublayer1.mlp.0.weight f4 [32, 4]
-0.5948747 -0.1919989 -0.52303874 -0.18063138 -0.18621133 0.16907376 0.32400602 0.1583631
0.4267878 0.011354175 0.5216567 -0.54229224 -0.42973176 0.0913154 -0.29582736 0.23244584
-0.14931396 0.45926502 0.1727099 0.08904576 -0.012927097 -0.40585017 -0.20463601 0.40705478
-0.3907025 -0.416158 -0.4374247 0.40395135 -0.44254097 0.49666676 -0.5008872 0.36111742
-0.09264125 0.19868107 0.13947779 0.25046515 -0.28292033 0.28641 0.08664774 -0.46401486
0.43668905 -0.047683813 0.7385297 0.08879105 0.42604402 0.08332487 0.42687374 -0.35962772
0.15801668 0.40543562 -0.21833013 -0.25542486 0.52706987 -0.13753729 0.17083156 0.29259184
-0.14398652 0.21125883 0.10490453 0.25218356 0.43973136 -0.23354137 0.36797264 -0.4504644
-0.36181572 0.25057802 0.2608339 -0.18414268 0.38855848 -0.18868472 -0.19602543 0.049629807
0.262307 -0.26740396 -0.2733176 -0.17139561 -0.1441542 0.080750786 -0.19958574 -0.40645066
-0.17178771 -0.23526241 -0.08274195 0.18863028 -0.37898028 0.31534958 -0.5138495 0.48599562
-0.1264642 0.29631135 -0.20211458 -0.012917117 0.7161939 -0.17151123 0.59462637 0.5040625
0.15136515 -0.15106192 -0.19358064 -0.46280333 0.20868233 0.07058217 -0.28222132 -0.28493074
0.15426865 -0.14218347 -0.19102313 -0.38871217 -0.25687608 -0.0554885 -0.063424416 0.4512578
0.15025918 -0.1892781 0.5167121 0.31185147 -0.051774304 -0.08078355 -0.19286789 0.1445872
-0.15236263 0.4717919 -0.12367178 -0.03640626 -0.1932019 0.4478646 0.49596065 0.43751806
00000000: b549 18bf 5c9b 44be dee5 05bf 6ff7 38be
00000010: 2fae 3ebe ac21 2d3e 1ee4 a53e f029 223e
00000020: ee83 da3e dd06 3a3c 4b8b 053f aad3 0abf
00000030: cd05 dcbe 9203 bb3d af76 97be 4806 6e3e
00000040: c2e5 18be c924 eb3e ddda 303e a05d b63d
00000050: 2dcc 53bc 98cb cfbe 1a8c 51be 7c69 d03e
00000060: 280a c8be a912 d5be 21f6 dfbe b6d2 ce3e
00000070: bb94 e2be 1b4b fe3e 253a 00bf 62e4 b83e
00000080: b2ba bdbd 0d73 4b3e 44d3 0e3e f83c 803e
00000090: efda 90be 55a4 923e 5f74 b13d 5b93 edbe
000000a0: b595 df3e 1a50 43bd 4810 3d3f 15d8 b53d
000000b0: 7122 da3e 3ba6 aa3d 328f da3e 2021 b8be
000000c0: 20cf 213e 4295 cf3e ef91 5fbe 0cc7 82be
000000d0: 0dee 063f 93d6 0cbe 78ee 2e3e 99ce 953e
000000e0: 3471 13be 3c54 583e 30d8 d63d 341e 813e
000000f0: 7824 e13e 7825 6fbe e966 bc3e 45a3 e6be
00000100: e93f b9be c34b 803e 058c 853e e68f 3cbe
00000110: 23f1 c63e 9136 41be e4ba 48be a048 4b3d
00000120: 1a4d 863e 2ce9 88be 49f0 8bbe 5582 2fbe
00000130: 299d 13be ab60 a53d 3460 4cbe 4d1a d0be
00000140: 1ee9 2fbe a1e8 70be 9d74 a9bd 4c28 413e
00000150: b409 c2be 8075 a13e a48b 03bf 6bd4 f83e
00000160: d57f 01be 1fb6 973e 20f7 4ebe 51a2 53bc
00000170: 7c58 373f a4a0 2fbe 6f39 183f 3d0a 013f
00000180: 77ff 1a3e faaf 1abe 013a 46be 8ff4 ecbe
00000190: d2b0 553e 628d 903d 507f 90be 71e2 91be
000001a0: 9af8 1d3e 8b98 11be 919b 43be 4805 c7be
000001b0: 4385 83be e947 63bd a9e4 81bd 430b e73e
000001c0: 8bdd 193e 1ed2 41be 3f47 043f ffaa 9f3e
000001d0: 4b11 54bd d971 a5bd 297f 45be ab0e 143e
000001e0: f304 1cbe b58e f13e a147 fdbd bb1e 15bd
000001f0: b8d6 45be 824e e53e 8eee fd3e 5e02 e03e

traj_subgraphNet.sublayer1.mlp.0.bias f4 [32]
0.0004438589 0.42001134 -0.36974046 -0.31981605 -0.099097684 -0.10074737 -0.044049144 0.14886352
0.43670833 -0.1582955 0.025061473 -0.25356779 -0.02716812 -0.017693413 -0.42978877 -0.26745385
0.097315386 -0.14455092 -0.26645714 -0.24636948 -0.2929505 0.12485438 0.34009013 0.51456493
-0.26659253 -0.042178903 -0.26693934 0.30659288 0.06544052 0.061591312 -0.100674845 -0.47933346
00000000: bcb5 e839 ba0b d73e 9f4e bdbe eebe a3be
00000010: baf3 cabd a354 cebd e06c 34bd ae6f 183e
00000020: 3c98 df3e 3718 22be b84d cd3c a3d3 81be
00000030: ad8f debc c7f1 90bc 460d dcbe b6ef 88be
00000040: 4a4d c73d 2805 14be 126d 88be 4848 7cbe
00000050: 9cfd 95be a7b3 ff3d 4b20 ae3e 87ba 033f
00000060: d17e 88be c9c3 2cbd 46ac 88be bef9 9c3e
00000070: ae05 863d 2c47 7c3d 9d2e cebd 326b f5be

traj_subgraphNet.sublayer1.mlp.2.weight f4 [64, 32]
0.17853184 0.4132813 0.22225241 -0.16416542 0.10558073 0.051905606 0.25039372 0.084562846
0.04618317 -0.018270016 0.10514142 0.11973995 0.11166973 0.06523817 -0.074776135 0.1662583
0.33849332 -0.055190053 0.049010444 0.22601314 0.15930575 -0.078147136 0.46621114 0.15897836
0.34121215 0.029113624 0.31630448 0.011319037 0.03222363 0.28280804 -0.08154903 -0.104706995
0.0495483 -0.04353241 0.0033955255 -0.10906947 -0.14232127 0.15534064 -0.09931865 -0.0032522664
0.011669892 0.08232736 -0.034095235 -0.0951869 0.22484404 0.011587031 0.064599276 0.13241383
0.0857032 -0.08145647 0.15225665 0.24058126 -0.10752388 0.08740289 0.019149976 0.21997553
0.33103612 0.23960415 0.32091352 0.2671428 -0.01907151 0.14074856 0.019344613 -0.16624011
0.102116846 0.35360104 0.241892 -0.055770423 -0.1659829 0.09263162 0.16935991 -0.12654614
0.09784258 0.12720548 0.12803136 0.1267592 -0.08777335 0.1312549 0.047617972 0.08197264
0.09664026 0.0020176037 0.077086136 -0.011576216 -0.05833125 -0.17009623 0.0414073 0.26949936
0.20214516 0.17554423 0.18133415 0.16193402 0.08010358 0.18035838 0.017681597 -0.14005056
0.31779417 0.43912503 -0.060834363 -0.13792819 -0.15767136 -0.10513767 0.30200878 -0.23275262
0.32670236 0.0098022595 0.34579098 0.29306537 0.014387368 0.371159 0.025295526 0.025671272
0.22445522 -0.015876643 0.007778746 0.3211731 -0.03966958 -0.07820215 0.17590858 -0.06286856
0.003499071 0.07764599 0.1599341 0.23557587 -0.074872255 0.18769772 -0.03465495 -0.002672658
0.20148402 0.2248769 0.2202657 0.014891513 -0.1349269 0.14291355 0.111538954 -0.047416262
-0.022232406 0.14111769 -0.24574089 0.30116805 0.08936719 -0.24481691 0.15160242 0.11141404
0.19154827 0.058492158 0.14793241 0.024585538 0.14788522 0.104770735 0.24619149 0.1494664
0.082466066 0.069139056 0.21988651 0.07807507 -0.032217305 0.26290286 -0.053939037 -0.05035674
0.21692413 0.20548691 0.027943425 -0.07013627 -0.061646916 -0.03405048 0.07325943 -0.1957718
0.2356576 0.027168795 0.2633336 0.16293007 -0.06608976 0.14347236 0.051666304 -0.093682244
0.17885116 -0.1914978 0.005784278 -0.13283107 0.18729872 -0.096928544 0.12516229 -0.055599432
0.25375152 0.058289688 0.063744165 0.09402003 0.09156863 0.08009946 0.09428323 0.003152837
0.24870697 0.35941514 0.031258814 0.08470023 0.022124346 -0.15763916 0.16035834 0.33425105
0.43628544 0.06627759 0.25570115 -0.09538564 0.1436516 -0.015702736 -0.10671165 -0.165653
0.13516903 -0.1302796 -0.14393684 0.008656308 -0.11603162 0.3056151 0.37586588 0.34628314
-0.04945482 0.16156608 -0.07758107 0.11933437 0.1557846 0.37255085 -0.100821875 0.15354429
0.24314289 0.045955967 0.055961203 0.025681663 0.13468233 -0.14857261 0.21291631 -0.22772731
0.31366974 0.0879088 0.12132666 0.089860484 0.12045154 0.30174237 -0.08381548 -0.0646868
0.034639396 0.15441515 0.026252901 0.13994776 -0.15068085 -0.21604306 0.09888035 0.16775468
0.00093186175 0.035104856 -0.063059516 0.1404205 0.31997275 0.16952142 0.06977715 -0.083517246
00000000: 0dd1 363e 9b99 d33e 2396 633e fb1a 28be
00000010: b63a d83d f99a 543d 9b33 803e 492f ad3d
00000020: 902a 3d3d 00ab 95bc 6354 d73d 383a f53d
00000030: 19b3 e43d 979b 853d 3b24 99bd 9e3f 2a3e
00000040: ff4e ad3e f70e 62bd 2dbf 483d fd6f 673e
00000050: 0c21 233e 9b0b a0bd 3ab3 ee3e 39cb 223e
00000060: 5cb3 ae3e b27f ee3c a9f2 a13e 7b73 393c
00000070: edfc 033d 37cc 903e 2e03 a7bd 9f70 d6bd
00000080: 29f3 4a3d 0a4f 32bd 7787 5e3b d05f dfbd
00000090: abbc 11be 9e11 1f3e 9467 cbbd fa23 55bb
000000a0: 1333 3f3c 3f9b a83d 72a7 0bbd 59f1 c2bd
000000b0: 843d 663e 88d7 3d3c a04c 843d 7e97 073e
000000c0: 2985 af3d a6d2 a6bd 2be9 1b3e ef5a 763e
000000d0: 7b35 dcbd 4900 b33d 69e0 9c3c 4441 613e
000000e0: 917d a93e ca5a 753e c74e a43e f1c6 883e
000000f0: db3b 9cbc 6420 103e 9878 9e3c d93a 2abe
00000100: a322 d13d 320b b53e 89b2 773e 876f 64bd
00000110: 6cf7 29be a6b5 bd3d af6c 2d3e 5095 01be
00000120: b161 c83d 2742 023e a71a 033e 2acd 013e
00000130: 84c2 b3bd af67 063e 100b 433d 45e1 a73d
00000140: 54eb c53d c639 043b 56df 9d3d 2baa 3dbc
00000150: c0ec 6ebd b52d 2ebe b39a 293d d2fb 893e
00000160: 24ff 4e3e dec1 333e a9af 393e 08d2 253e
00000170: 590d a43d deaf 383e ffd8 903c 6a69 0fbe
00000180: ebb5 a23e ffd4 e03e 742d 79bd 0c3d 0dbe
00000190: 9a74 21be 6b52 d7bd e5a0 9a3e b456 6ebe
000001a0: 8845 a73e a899 203c 840b b13e aa0c 963e
000001b0: ffb8 6b3c 8d08 be3e 9038 cf3c 8f4c d23c
000001c0: 97d7 653e bc0f 82bc dae4 fe3b cd70 a43e
000001d0: 927c 22bd 7328 a0bd 6121 343e 3bc1 80bd
000001e0: ac50 653b dc04 9f3d c4c5 233e cd3a 713e
000001f0: a056 99bd d533 403e 59f2 0dbd c327 2fbb
00000200: d451 4e3e 2146 663e 558d 613e 88fb 733c
00000210: 472a 0abe ee57 123e 896e e43d 8e37 42bd
00000220: bc20 b6bc 2881 103e 80a3 7bbe b332 9a3e
00000230: 2506 b73d 49b1 7abe aa3d 1b3e 0b2d e43d
00000240: 3b25 443e 7995 6f3d 987b 173e 9c67 c93c
00000250: 396f 173e 0a92 d63d 9f19 7c3e b80d 193e
00000260: f8e3 a83d c798 8d3d ee29 613e d3e5 9f3d
00000270: 4bf6 03bd 349b 863e 2eef 5cbd de42 4ebd
00000280: 5c21 5e3e 296b 523e 9ce9 e43c 9ba3 8fbd
00000290: 7a81 7cbd 8478 0bbd 0a09 963d 6778 48be
000002a0: 3a50 713e 1891 de3c a9d3 863e 24d7 263e
000002b0: 115a 87bd 6bea 123e 0ca0 533d 7adc bfbd
000002c0: c224 373e 0018 44be 0a8a bd3b de04 08be
000002d0: 3ccb 3f3e 7982 c6bd 8b2a 003e 3bbc 63bd
000002e0: b8eb 813e 2bc1 6e3d 4d8c 823d 938d c03d
000002f0: 5588 bb3d 300b a43d 9117 c13d d49f 4e3b
00000300: 0aad 7e3e 4305 b83e 3e09 003d 5077 ad3d
00000310: 1e3e b53c 296c 21be fa34 243e f422 ab3e
00000320: ce60 df3e 8cbc 873d 43eb 823e 8c59 c3bd
00000330: 6819 133e 06a3 80bc a38b dabd f1a0 29be
00000340: c069 0a3e 0468 05be 2e64 13be 30d3 0d3c
00000350: fca1 edbd 9579 9c3e 7e71 c03e 064c b13e
00000360: 2391 4abd 9471 253e d3e2 9ebd 9465 f43d
00000370: 0086 1f3e fcbe be3e b37b cebd b73a 1d3e
00000380: 73fa 783e 533c 3c3d 9337 653d 5a62 d23c
00000390: 2aea 093e 6b23 18be bc06 5a3e 5931 69be
000003a0: 5299 a03e 8709 b43d 1d7a f83d c608 b83d
000003b0: 4caf f63d fa7d 9a3e 73a7 abbd 837a 84bd
000003c0: 0ae2 0d3d 011f 1e3e 5310 d73c 774e 0f3e
000003d0: 154c 1abe 643a 5dbe c881 ca3d e2c7 2b3e
000003e0: 2f48 743a 1cca 0f3d 5925 81bd 64ca 0f3e
000003f0: 78d3 a33e 0697 2d3e 53e7 8e3d 170b abbd

traj_subgraphNet.sublayer1.mlp.2.bias f4 [64]
-0.096145265 0.14038001 0.06829742 0.022176772 0.07797849 0.18569772 0.31623906 0.12383922
0.25169104 0.076567106 0.14229153 0.16464362 0.131615 0.038796 0.07680162 0.38072115
0.13643067 0.105343364 0.04646786 0.34744525 0.1918194 0.24992917 0.2661092 0.021160081
0.13558677 0.18315324 0.20421158 -0.13318802 0.06541373 -0.058802143 0.1099752 -0.050274383
-0.019633356 -0.07638044 0.16539226 -0.06927932 0.24566048 0.18523222 0.31582806 0.007290569
0.12118784 0.07194993 0.038828503 -0.043361157 0.26811495 0.12214543 -0.015450746 0.08745117
0.396601 0.008135279 0.08882634 0.07048832 0.23786102 0.20133118 0.12540843 0.10494583
-0.018513767 -0.099731095 0.22282648 0.15429844 0.07227254 0.18208072 0.12289797 0.06091396
00000000: cfe7 c4bd c7bf 0f3e 85df 8b3d 10ac b53c
00000010: 30b3 9f3d 8b27 3e3e 16ea a13e 6b9f fd3d
00000020: a6dd 803e 37cf 9c3d dfb4 113e 5698 283e
00000030: 15c6 063e 8ee8 1e3d 2b4a 9d3d e2ed c23e
00000040: 7bb4 0b3e 43be d73d 1555 3e3d 58e4 b13e
00000050: 4e6c 443e 6fed 7f3e 773f 883e e857 ad3c
00000060: 42d7 0a3e 868c 3b3e d71c 513e 7162 08be
00000070: a2f7 853d 84da 70bd ad3a e13d 83ec 4dbd
00000080: 22d6 a0bc 596d 9cbd 975c 293e 51e2 8dbd
00000090: 6c8e 7b3e 84ad 3d3e 37b4 a13e bae5 ee3b
000000a0: 5531 f83d 7c5a 933d a30a 1f3d 789b 31bd
000000b0: 5d46 893e 6227 fa3d 2025 7dbc 9919 b33d
000000c0: 490f cb3e d549 053c 96ea b53d 2e5c 903d
000000d0: d791 733e c329 4e3e 116b 003e d7ed d63d
000000e0: 2faa 97bc d13f ccbd a02c 643e 6900 1e3e
000000f0: a003 943d 5e73 3a3e eeb1 fb3d eb80 793d

traj_subgraphNet.sublayer2.mlp.0.weight f4 [32, 128]
-0.024971891 -0.079789534 -0.010480497 -0.03483946 0.032288026 -0.13757825 -0.086766385 0.06862234
-0.024556857 -0.05419302 -0.035723206 0.02974895 -0.017349726 -0.06604015 0.012592113 0.042662125
-0.012338722 0.08256609 0.029890858 -0.032284502 -0.041810244 0.017025208 0.06929339 -0.06185976
-0.029349802 -0.078216776 -0.07911304 0.015857693 0.11601272 0.011778329 -0.011823277 -0.082062416
0.015071422 0.06806237 -0.09697382 -0.058419947 -0.038541753 0.070849046 -0.09786503 -0.023971295
0.0671438 0.038180403 -0.048885886 0.0075309533 -0.10564953 -0.024594296 -0.0704877 0.026268192
0.020471744 -0.11804148 -0.09853213 -0.024319954 -0.054547325 0.034594126 -0.06933332 -0.012781158
0.058869448 0.021158995 -0.04391834 0.049491625 0.008628702 -0.03312535 0.02910661 -0.03229804
0.032200847 -0.11766139 -0.062529005 0.06526314 -0.08570863 -0.024793245 0.03701431 0.052526794
-0.08571808 -0.030594585 -0.019275753 -0.023558334 -0.052279763 -0.036835026 0.0020698116 -0.08237966
-0.017043754 -0.030522317 -0.08707848 -0.028943669 0.03292106 -0.044431437 0.02742049 -0.04935012
0.050047953 -0.12521315 0.010156474 0.01588206 0.040845152 0.07196284 -0.0616191 0.00061618735
-0.12610976 -0.05268686 -0.08502868 0.041893598 0.046159547 0.012786779 0.023215035 0.03847204
0.054994628 0.039147146 0.077868134 -0.03692716 -0.055288553 -0.041548777 -0.06318252 0.07446144
0.011684228 -0.098448224 -0.015421174 0.03544357 0.03459609 0.0737923 -0.07305082 -0.06690702
-0.09740689 0.00827235 -0.09669534 -0.05030925 -0.110028915 -0.0522304 -0.111861534 -0.087473474
-0.17411692 0.21757881 -0.16201004 0.054117184 -0.10302547 0.12587357 0.1162133 0.046114653
-0.09547391 0.07679571 0.1157701 -0.0071225083 0.19296916 0.14553061 0.17403007 -0.037690654
-0.22900099 0.30808103 -0.11935127 -0.031704366 -0.15046029 0.26514786 0.22843456 -0.23055956
0.009008627 -0.113722846 -0.14876644 0.11700697 -0.10108125 0.05916018 0.109518275 0.19583988
0.14296594 -0.15741143 -0.15191594 0.030727591 0.35779226 -0.2011959 0.06154675 0.123564236
-0.1559838 0.104451954 0.2010662 -0.23608692 0.2045652 -0.19502449 -0.168262 -0.030066358
0.08430214 0.00438916 -0.30986303 0.28886446 -0.019501053 -0.16320394 0.030249786 0.34605747
-0.16732824 -0.2909418 0.0077833463 -0.15576312 0.33883777 0.20975174 0.16916333 -0.08040092
-0.1654046 -0.1129677 -0.269628 0.2064859 -0.09867885 0.065371886 -0.007486103 0.029025357
0.06172725 -0.05763417 -0.09743167 0.02995039 0.19415306 0.07074417 0.103316724 -0.0130388
-0.40873545 -0.06085331 -0.1336478 0.1342576 -0.2907201 -0.014892386 0.07241075 -0.22535649
-0.023963828 0.1377436 0.10034464 0.06802497 0.054668594 -0.17006293 -0.058462717 -0.046962567
0.075310454 -0.1648217 -0.06400882 -0.092482 0.2703271 -0.22307763 0.005854699 0.23621988
-0.20257385 0.17702675 0.20494576 -0.11544286 0.11440661 -0.14256625 -0.06669872 -0.08650743
0.103550434 -0.17980316 -0.17139682 0.24328049 0.18672293 -0.05330888 -0.051515117 0.01750415
-0.28183672 -0.10197751 0.118458286 -0.31776232 0.03168871 -0.012490201 0.2106884 -0.31318364
00000000: da91 ccbc b268 a3bd 64b6 2bbc d2b3 0ebd
00000010: 7340 043d 50e1 0cbe 93b2 b1bd df89 8c3d
00000020: 762b c9bc 80f9 5dbd 7f52 12bd 12b4 f33c
00000030: 0321 8ebc 0f40 87bd 264f 4e3c 7bbe 2e3d
00000040: 5a28 4abc 6918 a93d acdd f43c c13c 04bd
00000050: 3841 2bbd 7378 8b3c b1e9 8d3d a960 7dbd
00000060: ff6e f0bc 1e30 a0bd 0406 a2bd fee7 813c
00000070: 1498 ed3d e4f9 403c 6bb6 41bc 5710 a8bd
00000080: 20ee 763c 4964 8b3d 369a c6bd c149 6fbd
00000090: f5dd 1dbd 4e19 913d 766d c8bd 735f c4bc
000000a0: b082 893d 0e63 1c3d 913c 48bd 37c6 f63b
000000b0: c85e d8bd fa79 c9bc db5b 90bd 6430 d73c
000000c0: 5cb4 a73c bbbf f1bd 37cb c9bd a43a c7bc
000000d0: 046d 5fbd 92b2 0d3d a1fe 8dbd 1068 51bc
000000e0: 1721 713d a155 ad3c b8e3 33bd bbb7 4a3d
000000f0: 665f 0d3c 72ae 07bd fc70 ee3c f34a 04bd
00000100: 09e5 033d 74f8 f0bd 350f 80bd aea8 853d
00000110: 0288 afbd 341b cbbc 519c 173d 5626 573d
00000120: f68c afbd 7fa1 fabc 2fe8 9dbc 68fd c0bc
00000130: 4e23 56bd 53e0 16bd ada5 073b abb6 a8bd
00000140: 589f 8bbc f009 fabc 3456 b2bd 461b edbc
00000150: 3cd8 063d bdfd 35bd efa0 e03c 5a23 4abd
00000160: 15ff 4c3d e037 00be 5767 263c 181b 823c
00000170: 3f4d 273d 4161 933d 4f64 7cbd a287 213a
00000180: eb22 01be 2dce 57bd 8423 aebd 9f98 2b3d
00000190: cb11 3d3d a37f 513c 752d be3c dc94 1d3d
000001a0: 0c42 613d c258 203d 5479 9f3d ef40 17bd
000001b0: 4076 62bd 0d2f 2abd d665 81bd 3d7f 983d
000001c0: 346f 3f3c 399f c9bd 17a9 7cbc 472d 113d
000001d0: a1b4 0d3d 6b20 973d ab9b 95bd 8c06 89bd
000001e0: 437d c7bd c088 073c 3508 c6bd 1211 4ebd
000001f0: d756 e1bd 8bef 55bd a917 e5bd 4b25 b3bd
00000200: b54b 32be fbcc 5e3e f6e5 25be fba9 5d3d
00000210: 05ff d2bd 00e5 003e 3d01 ee3d b8e2 3c3d
00000220: d387 c3bd 1247 9d3d e018 ed3d ee63 e9bb
00000230: b599 453e fa05 153e f034 323e 8461 1abd
00000240: 3c7f 6abe ccbc 9d3e 706e f4bd 70dc 01bd
00000250: 4312 1abe 76c1 873e c0ea 693e ce17 6cbe
00000260: ec98 133c 86e7 e8bd 3b56 18be 5aa1 ef3d
00000270: b003 cfbd f251 723d 1e4b e03d 408a 483e
00000280: aa65 123e 7630 21be da8f 1bbe 6eb8 fb3c
00000290: 8c30 b73e 4c06 4ebe 7218 7c3d 3f0f fd3d
000002a0: 38ba 1fbe e8ea d53d 4ce4 4d3e c5c0 71be
000002b0: 8a79 513e 80b4 47be e04c 2cbe b94d f6bc
000002c0: 9aa6 ac3d f1d2 8f3b 5ea6 9ebe 0be6 933e
000002d0: acc0 9fbc ef1e 27be 66ce f73c 722e b13e
000002e0: 1858 2bbe 53f6 94be 710b ff3b 5e80 1fbe
000002f0: 257c ad3e 29c9 563e 2739 2d3e 3da9 a4bd
00000300: d35f 29be 9c5b e7bd ae0c 8abe 0a71 533e
00000310: 2318 cabd b2e1 853d fc4d f5bb 96c6 ed3c
00000320: b7d5 7c3d cf11 6cbd 418a c7bd 855a f53c
00000330: 0fd0 463e 52e2 903d b897 d33d b1a0 55bc
00000340: c645 d1be 5241 79bd f8da 08be d37a 093e
00000350: 44d9 94be 32ff 73bc 164c 943d dac3 66be
00000360: ca4f c4bc a90c 0d3e 7e81 cd3d ad50 8b3d
00000370: 2dec 5f3d fa24 2ebe 9a76 6fbd d25b 40bd
00000380: 5e3c 9a3d 05c7 28be 0e17 83bd 3467 bdbd
00000390: 5068 8a3e 766e 64be c6d8 bf3b a0e3 713e
000003a0: 856f 4fbe 8046 353e 4ddd 513e 4e6d ecbd
000003b0: 034e ea3d e3fc 11be 5799 88bd cf2a b1bd
000003c0: 4012 d43d 521e 38be a682 2fbe 851e 793e
000003d0: 4c34 3f3e 6a5a 5abd 8401 53bd dd64 8f3c
000003e0: e74c 90be 96d9 d0bd 429a f23d beb1 a2be
000003f0: 05cc 013d b3a3 4cbc b3be 573e 9b59 a0be

traj_subgraphNet.sublayer2.mlp.0.bias f4 [32]
-0.111500904 0.09637978 -0.015595469 0.0027096993 0.02262856 -0.19462962 0.01368065 -0.054076623
0.010656781 0.04155652 -0.09578625 0.03250478 -0.060792353 0.05709169 0.066519566 -0.14537324
0.068378516 -0.11431985 -0.00057243044 0.070158064 0.19417696 -0.07216175 -0.014029718 -0.013210795
0.0015900312 -0.06409446 0.048061505 0.031246878 0.03701305 0.05164379 0.22946924 0.26641598
00000000: 965a e4bd c362 c53d 2384 7fbc 3695 313b
00000010: 885f b93c fd4c 47be ce24 603c 737f 5dbd
00000020: c799 2e3c 2b37 2a3d 952b c4bd bb23 053d
00000030: 6701 79bd fad8 693d 693b 883d b9dc 14be
00000040: 090a 8c3d 8720 eabd 280f 16ba 08af 8f3d
00000050: 53d6 463e 8ac9 93bd e7dc 65bc 1772 58bc
00000060: 9868 d03a f543 83bd 24dc 443d 74f9 ff3c
00000070: ff9a 173d 7088 533d fcf9 6a3e ad67 883e

traj_subgraphNet.sublayer2.mlp.2.weight f4 [64, 32]
0.02643755 0.41727751 0.12780698 -0.08399876 0.19681291 -0.18987286 -0.06377915 -0.05724407
0.028161144 -0.384394 0.01633245 -0.10283531 0.10396963 0.23922706 -0.10797056 0.120489106
-0.04321964 0.066142365 -0.11667526 0.12877135 0.054167155 -0.07381923 0.0865985 -0.32705817
0.2887136 -0.018719206 -0.0018362529 0.0456259 0.4289226 0.27525607 0.2071937 0.16825815
0.033508554 0.185333 0.07830301 0.06859156 -0.18233083 -0.11314301 0.17738084 -0.116799235
-0.12758154 -0.17052993 0.031531435 -0.13872275 0.24064988 0.24023068 -0.10535004 -0.14790148
0.1614277 0.016459962 -0.14650854 0.21927372 0.32725203 -0.15691212 0.35217452 0.075410634
-0.21401484 0.14135775 0.08795054 -0.031242691 0.07144906 0.0694987 0.34155503 0.13689183
-0.12542844 0.051006656 0.17364922 -0.1520975 0.05385956 0.2018752 0.01518551 0.061321266
0.08663925 0.32137057 -0.10803202 -0.009416919 0.2910651 0.33995748 -0.1549146 0.10622533
0.17645475 -0.047687102 0.1377804 0.23012856 0.009692535 0.12587604 0.38712063 0.26640436
-0.15755758 0.12114486 0.03872505 -0.0032475733 -0.12417793 0.16789731 -0.07406949 0.0023332608
0.10445352 0.22387879 -0.061116867 -0.10836475 0.25873414 -0.03574134 -0.053565066 0.16765057
-0.07925761 0.0015845728 0.40272692 0.068611726 0.18914045 0.26523602 0.14249526 0.20819117
-0.029640382 0.14134823 -0.21731806 0.2549277 -0.02410549 0.24440251 0.24409366 0.18421163
0.12353567 -0.12502003 -0.034854736 -0.14759737 0.1390057 0.036396712 0.072024815 -0.059610903
0.11647426 0.48152897 0.026620971 -0.0926594 0.2189179 -0.056310315 0.12760058 -0.16349919
-0.103440225 -0.31445768 0.089013904 -0.055430416 0.047121946 0.07794291 -0.16706297 -0.023564482
0.10171667 0.060813326 0.19531116 0.1167651 0.13749099 -0.20860597 -0.08338922 -0.27035803
0.18646023 -0.01785122 0.011192979 0.07569908 0.5029412 0.33642814 0.34068835 0.024918623
-0.07934805 -0.12608786 0.05367174 -0.12461318 0.0529149 -0.08001406 -0.03080772 -0.02052895
0.12553266 0.25426432 0.012327744 -0.11723908 0.16813672 0.1540572 -0.15679349 -0.33306834
0.018743852 -0.046051055 0.18091635 0.115830004 0.14633518 0.06959216 0.11368716 0.113971
-0.1892581 -0.11952136 -0.093020715 0.0076325918 0.027241213 -0.03220085 0.027754806 0.13398705
-0.060912434 -0.090368874 -0.075231135 -0.16813019 -0.019906992 0.26928318 -0.029438194 0.1427051
0.08331754 0.1528869 0.056871474 -0.067455396 0.051038515 0.16962504 0.09961878 0.21154267
-0.08278904 -0.05313974 0.11392091 0.28424534 0.19588836 0.16596729 0.32019144 0.093634106
-0.032323062 -0.0056310464 0.015917443 -0.1082349 0.047853302 0.114905156 0.099856414 -0.101727605
-0.10359274 0.11679301 0.05699463 -0.05032715 0.0045888955 -0.22819059 -0.13562134 0.16393451
0.07200681 -0.0540523 -0.10970804 0.1627077 0.1360347 -0.019625202 -0.10100791 -0.024558205
0.067089505 0.10765355 0.27879873 0.25204983 0.22631782 0.0103297485 -0.13111994 -0.07241661
-0.014364406 -0.06295325 -0.1350418 0.13901469 0.016420605 0.01243457 0.086490326 0.15769225
00000000: 9093 d83c 66a5 d53e d5df 023e 8b07 acbd
00000010: 5389 493e 086e 42be a59e 82bd c278 6abd
00000020: 33b2 e63c 4acf c4be a1cb 853c 529b d2bd
00000030: 08ee d43d f0f7 743e ab1f ddbd fec2 f63d
00000040: 1407 31bd a675 873d 70f3 eebd a3dc 033e
00000050: 61de 5d3d 892e 97bd 8e5a b13d 2b74 a7be
00000060: 45d2 933e 0559 99bc 6cae f0ba 39e2 3a3d
00000070: be9b db3e 5dee 8c3e 962a 543e dd4b 2c3e
00000080: 4440 093d efc7 3d3e 545d a03d bb79 8c3d
00000090: efb4 3abe 86b7 e7bd 53a3 353e 7034 efbd
000000a0: bca4 02be 669f 2ebe 1b27 013d 560d 0ebe
000000b0: ec6c 763e 08ff 753e c3c1 d7bd 7c73 17be
000000c0: 4e4d 253e 0bd7 863c 5606 16be 4a89 603e
000000d0: 948d a73e 92ad 20be 3850 b43e e470 9a3d
000000e0: b526 5bbe 16c0 103e 6a1f b43d acf0 ffbc
000000f0: e353 923d 5655 8e3d 4de0 ae3e 5f2d 0c3e
00000100: 5070 00be 5bec 503d 1ad1 313e 72bf 1bbe
00000110: d89b 5c3d 5fb8 4e3e a5cc 783c 022c 7b3d
00000120: eb6f b13d af8a a43e e43f ddbd 6c49 1abc
00000130: 7c06 953e e80e ae3e efa1 1ebe aa8c d93d
00000140: 8eb0 343e 8d53 43bd 4e16 0d3e d2a6 6b3e
00000150: 70cd 1e3c a6e5 003e ad34 c63e 2766 883e
00000160: c656 21be cc1a f83d 289e 1e3d 3dd5 54bb
00000170: 0051 febd 46ed 2b3e bfb1 97bd 9fe9 183b
00000180: baeb d53d 7b40 653e ae55 7abd 57ee ddbd
00000190: cd78 843e 8365 12bd 0b67 5bbd 97ac 2b3e
000001a0: d051 a2bd 71b1 cf3a 3932 ce3e 4e84 8c3d
000001b0: 09ae 413e 04cd 873e 47ea 113e 1130 553e
000001c0: 63d0 f2bc 97bd 103e a088 5ebe e285 823e
000001d0: e078 c5bc a744 7a3e b0f3 793e f9a1 3c3e
000001e0: 4500 fd3d 4005 00be d7c3 0ebd c423 17be
000001f0: 8357 0e3e b814 153d bf81 933d 902a 74bd
00000200: 0f8a ee3d f78a f63e 3914 da3c 36c4 bdbd
00000210: 042c 603e a5a5 66bd baa9 023e 556c 27be
00000220: 78d8 d3bd 9900 a1be ec4c b63d 010b 63bd
00000230: f102 413d 88a0 9f3d 8e12 2bbe 4d0a c1bc
00000240: d450 d03d 6517 793d a6ff 473e 8a22 ef3d
00000250: 70ca 0c3e ce9c 55be f8c7 aabd 5e6c 8abe
00000260: 6eef 3e3e b93c 92bc c262 373c 1f08 9b3d
00000270: c1c0 003f 4f40 ac3e b46e ae3e 2422 cc3c
00000280: 3b81 a2bd 2d1d 01be e6d6 5b3d 3235 ffbd
00000290: 4bbd 583d 69de a3bd 7960 fcbc 542c a8bc
000002a0: a28b 003e ef2e 823e 4efa 493c 0b1b f0bd
000002b0: 082c 2c3e 2cc1 1d3e 798e 20be ef87 aabe
000002c0: b58c 993c 08a0 3cbd 2342 393e 4838 ed3d
000002d0: e4d8 153e 5686 8e3d d0d4 e83d a169 e93d
000002e0: e0cc 41be 9dc7 f4bd a581 bebd d21a fa3b
000002f0: f728 df3c 0ae5 03bd 0c5e e33c e733 093e
00000300: 517f 79bd 5113 b9bd c812 9abd 522a 2cbe
00000310: fd13 a3bc 7cdf 893e 5e28 f1bc 4921 123e
00000320: 63a2 aa3d 628e 1c3e 10f2 683d 0e26 8abd
00000330: c30d 513d 30b2 2d3e ee04 cc3d a49e 583e
00000340: 4d8d a9bd 0ea9 59bd 5e4f e93d 9b88 913e
00000350: f596 483e 54f3 293e 22f0 a33e 3dc3 bf3d
00000360: 3065 04bd a484 b8bb 4c65 823c 42aa ddbd
00000370: d301 443d 6553 eb3d 8581 cc3d 9056 d0bd
00000380: 6e28 d4bd 2c31 ef3d 3373 693d d723 4ebd
00000390: 725e 963b cbaa 69be 52e0 0abe 73de 273e
000003a0: 4e78 933d f265 5dbd 9cae e0bd d99c 263e
000003b0: ae4c 0b3e 08c5 a0bc 3cdd cebd 4a2e c9bc
000003c0: 3966 893d 7779 dc3d b5be 8e3e ad0c 813e
000003d0: dcbf 673e 1b3e 293c 4e44 06be 294f 94bd
000003e0: af58 6bbc a2ed 80bd 6648 0abe de59 0e3e
000003f0: 8184 863c 5eba 4b3c d721 b13d 147a 213e

traj_subgraphNet.sublayer2.mlp.2.bias f4 [64]
-0.03585379 0.25572506 0.004642961 0.221152 0.076622784 0.24593668 -0.06674022 0.09752772
0.05912552 0.077697664 -0.07932231 0.42090008 0.22948 0.32114795 -0.018646665 0.018757991
-0.110270076 -0.042719167 0.12409905 0.26372284 0.28872085 -0.03447899 -0.116155036 0.3277237
-0.15917249 0.19534168 0.18765737 0.129502 0.1907172 -0.009753543 0.1757761 0.1769068
0.40643087 -0.07517779 0.03090013 -0.18734689 0.19640681 0.14562716 -0.10223615 0.28755006
0.40411592 0.0011564177 0.13160323 0.047132134 0.19813406 0.34867612 0.048722066 0.034708917
0.18400824 0.10878657 0.059956286 -0.15428779 -0.052735295 0.16404007 0.16984645 0.33437333
-0.14414935 -0.045441516 0.008469936 0.04627632 0.01694324 0.06143003 0.26330495 0.2571654
00000000: 6cdb 12bd 65ee 823e fb23 983b ab75 623e
00000010: 68ec 9c3d d3d6 7b3e 19af 88bd 9dbc c73d
00000020: 9a2d 723d f41f 9f3d bc73 a2bd 3780 d73e
00000030: cefc 6a3e 816d a43e e4c0 98bc 5caa 993c
00000040: 47d5 e1bd 4bfa 2ebd a527 fe3d ae06 873e
00000050: 38d3 933e d739 0dbd b1e2 edbd 67cb a73e
00000060: 1dfe 22be a607 483e 4129 403e 2c9c 043e
00000070: 5f4b 433e 53cd 1fbc a6fe 333e 0e27 353e
00000080: b517 d03e d0f6 99bd 4522 fd3c ddd7 3fbe
00000090: de1e 493e 491f 153e 3061 d1bd c339 933e
000000a0: 48e8 ce3e f092 973a ffc2 063e a00d 413d
000000b0: a8e3 4a3e ad85 b23e ca90 473d f02a 0e3d
000000c0: a86c 3c3e 7ecb de3d b994 753d 9efd 1dbe
000000d0: f700 58bd 1ffa 273e 3aec 2d3e fb32 ab3e
000000e0: e39b 13be e220 3abd 7dc5 0a3c 3d8c 3d3d
000000f0: 8dcc 8a3c 0e9e 7b3d e8cf 863e 2fab 833e

traj_subgraphNet.sublayer3.mlp.0.weight f4 [32, 128]
-0.08100179 0.063235454 -0.069091976 0.07882809 -0.01051197 -0.08328453 -0.041801147 -0.015686203
-0.0871018 -0.036198728 -0.03138596 -0.09296069 -0.013283643 0.0096162595 0.058495782 0.0042866
-0.061015356 -0.04078276 0.043356095 0.03022305 0.044199146 -0.07379885 -0.078811705 -0.0043547954
0.011355796 -0.004848022 0.07421295 0.008166226 -0.08258239 0.07930937 -0.065112285 0.032153025
-0.022382505 -0.08759769 -0.052548688 -0.03484334 0.0017660818 -0.057803445 0.075031675 -0.04430625
-0.056873366 -0.042180788 -0.025775813 0.079012245 0.04885412 -0.039035417 -0.002719589 0.06863592
-0.045945924 0.0032481002 -0.06315401 -0.08585697 0.018941054 0.07557207 -0.043663416 -0.006861854
-0.04286235 0.026838448 -0.016804805 -0.014782343 0.0039933505 0.020289142 0.03710026 0.04183917
0.015669953 0.046730258 -0.067193456 -0.05745738 0.071882315 -0.00899342 0.02982087 0.07534014
-0.052550305 0.023157924 -0.040697545 0.015020754 -0.04764541 -0.0020498706 0.009540025 0.010779321
-0.08141301 -0.06779016 -0.021862585 0.012418933 0.0036490457 0.00012361804 -0.034901787 -0.0081827855
-0.05397722 0.01611137 0.07359919 -0.0813646 0.041991837 -0.014358716 0.08100878 0.061284523
-0.032021567 -0.015819754 0.044334147 0.0051741684 -0.08501987 -0.08218463 -0.0030808256 0.02326724
0.0022325476 0.055192966 0.079605274 -0.0072808256 0.049621917 -0.084753394 0.03738494 -0.06961794
-0.049337287 -0.030563084 0.072564915 0.046055757 0.047931693 -0.0127722435 -0.04684085 0.029140236
-0.056728482 -0.02501807 0.034322955 -0.08265806 -0.091052495 -0.083258584 -0.073927134 -0.052309986
0.019903086 -0.07879749 -0.027368855 -0.043885015 0.00069109653 0.064878024 0.043984596 -0.0777193
-0.004100866 -0.074229196 -0.07947542 0.036718473 -0.061040338 0.0075939824 -0.07871843 -0.044221614
-0.07059775 0.07658044 -0.087763 -0.019140456 -0.06573351 0.0326448 0.0023355628 0.035600875
0.07993276 0.038038395 0.034251224 -0.07519023 -0.07917626 -0.020163678 -0.08512026 -0.075485826
0.051340517 -0.014725238 -0.023855621 -0.07563031 -0.010689666 0.01140221 0.045957733 0.06442219
0.05864077 0.07781845 0.024547322 -0.075468116 0.072642766 -0.001660754 -0.0109538445 -0.0046555363
0.010895959 0.06258531 -0.077988364 0.043177176 -0.0015656359 -0.030945905 0.03172202 -0.03346826
-0.052602135 0.07110635 -0.018063627 0.0007172972 0.0580292 0.0014194972 0.0031562825 -0.08077694
-0.05390258 -0.06796759 -0.037041105 -0.01605432 0.004255004 -0.05003968 0.08153093 -0.028392509
0.03662005 0.044595204 0.083139986 -0.046808433 -0.087694705 0.063642256 -0.017240014 0.032192424
-0.07204041 -0.061557226 -0.03986725 0.027466506 -0.006404258 0.027751675 -0.0813175 -0.08852346
-0.042101745 0.060998626 0.068475574 -0.05995658 0.0034604464 0.06564147 -0.081090994 -0.06495661
-0.06121259 -0.07192028 0.06849558 0.040593654 0.012096632 0.02527835 -0.056053687 -0.08046084
-0.06037138 -0.08413599 -0.041243993 -0.024764394 -0.08554341 -0.03372787 -0.03834226 0.007319381
-0.045631886 -0.04291959 -0.08547497 0.06953963 -0.09038932 -0.04352785 -0.020633651 -0.06798399
-0.07897725 -0.07983136 -0.0522315 -0.068097115 -0.01427917 -0.095658176 -0.006006663 -0.05560872
00000000: 44e4 a5bd 9781 813d 1880 8dbd 9f70 a13d
00000010: 663a 2cbc 1491 aabd ae37 2bbd 5a80 80bc
00000020: 6e62 b2bd 1e45 14bd 908e 00bd 2d62 bebd
00000030: a3a3 59bc 848d 1d3c 4699 6f3d 9b76 8c3b
00000040: 3deb 79bd d30b 27bd 2996 313d 5496 f73c
00000050: 2a0a 353d da23 97bd 0868 a1bd acb2 8ebb
00000060: a90d 3a3c 28dc 9ebb f6fc 973d a2cb 053c
00000070: f520 a9bd f36c a23d 9759 85bd e4b2 033d
00000080: 845b b7bc 6b66 b3bd 4b3d 57bd e4b7 0ebd
00000090: df7b e73a 4ec3 6cbd 35aa 993d 787a 35bd
000000a0: 0cf4 68bd c3c5 2cbd cc27 d3bc 2cd1 a13d
000000b0: 421b 483d 9ae3 1fbd 223b 32bb fd90 8c3d
000000c0: cb31 3cbd 14de 543b e456 81bd c7d5 afbd
000000d0: 452a 9b3c 88c5 9a3d 69d8 32bd 67d9 e0bb
000000e0: 6e90 2fbd 4edc db3c 3baa 89bc a431 72bc
000000f0: a7da 823b 6a35 a63c 71f6 173d 8d5f 2b3d
00000100: 465e 803c 3a68 3f3d b99c 89bd 6e58 6bbd
00000110: 0937 933d 2359 13bc e64a f43c ee4b 9a3d
00000120: fd3e 57bd b0b5 bd3c 78b2 26bd 9c19 763c
00000130: d527 43bd 1f57 06bb c44d 1c3c c09b 303c
00000140: ddbb a6bd 91d5 8abd 2a19 b3bc c878 4b3c
00000150: d424 6f3b 779f 0139 2df5 0ebd 1711 06bc
00000160: 3817 5dbd fefb 833c 2cbb 963d 7ca2 a6bd
00000170: a2ff 2b3d d240 6bbc eee7 a53d 7b05 7b3d
00000180: 0c29 03bd 6e98 81bc b997 353d 128c a93b
00000190: e61e aebd 6a50 a8bd ade7 49bb f09a be3c
000001a0: ef4f 123b 0512 623d 1708 a33d fe93 eebb
000001b0: 5a40 4b3d 3093 adbd f320 193d da93 8ebd
000001c0: e515 4abd 6f5f fabc ea9c 943d f6a4 3c3d
000001d0: 0654 443d ac42 51bc 31dc 3fbd 81b7 ee3c
000001e0: 205c 68bd b2f2 ccbc 3a96 0c3d a148 a9bd
000001f0: bb79 babd 7a83 aabd 1c67 97bd ff42 56bd
00000200: cc0b a33c 9460 a1bd a634 e0bc c6c0 33bd
00000210: b42a 353a c5de 843d 3129 343d 4c2b 9fbd
00000220: 8f60 86bb 7a05 98bd 02c4 a2bd 1c66 163d
00000230: 6f05 7abd f1d6 f83b 2137 a1bd b921 35bd
00000240: 8e95 90bd 35d6 9c3d 16bd b3bd 72cc 9cbc
00000250: 4a9f 86bd 8eb6 053d 3e10 193b 39d2 113d
00000260: c9b3 a33d 26ce 1b3d 034b 0c3d 56fd 99bd
00000270: 2a27 a2bd 4c2e a5bc 8853 aebd 5098 9abd
00000280: 6f4a 523d 2042 71bc dd6c c3bc 10e4 9abd
00000290: b523 2fbc 56d0 3a3c 2d3e 3c3d c8ef 833d
000002a0: 4e31 703d 485f 9f3d 7717 c93c 078f 9abd
000002b0: bbc5 943d a8ad d9ba c177 33bc 788d 98bb
000002c0: f784 323c ba2c 803d 5db8 9fbd 8dda 303d
000002d0: 0636 cdba 4482 fdbc f3ee 013d 0416 09bd
000002e0: 5675 57bd 35a0 913d 2cfa 93bc 0009 3c3a
000002f0: 07b0 6d3d 6c0e ba3a a2d9 4e3b 616e a5bd
00000300: f4c8 5cbd 9832 8bbd 6ab8 17bd 5984 83bc
00000310: 906d 8b3b 68f6 4cbd b0f9 a63d 6897 e8bc
00000320: e8fe 153d 76a9 363d 4c45 aa3d 33ba 3fbd
00000330: 4899 b3bd df56 823d ee3a 8dbc 34dc 033d
00000340: ec89 93bd 6e23 7cbd d74b 23bd 7001 e13c
00000350: cfda d1bb 7b57 e33c ca89 a6bd ca4b b5bd
00000360: e172 2cbd b2d9 793d ec3c 8c3d 0895 75bd
00000370: a8c8 623b 096f 863d 0913 a6bd f907 85bd
00000380: 0eba 7abd f14a 93bd 6947 8c3d 8845 263d
00000390: f430 463c 8b14 cf3c 8d98 65bd a7c8 a4bd
000003a0: fb47 77bd 7d4f acbd 76ef 28bd b3de cabc
000003b0: 6231 afbd 3c26 0abd c60c 1dbd 6bd7 ef3b
000003c0: 80e8 3abd 74cc 2fbd 800d afbd cb6a 8e3d
000003d0: 091e b9bd 424a 32bd e707 a9bc 313b 8bbd
000003e0: d3be a1bd a07e a3bd b3f0 55bd 8076 8bbd
000003f0: 2ef3 69bc 6fe8 c3bd 8bd3 c4bb f8c5 63bd

traj_subgraphNet.sublayer3.mlp.0.bias f4 [32]
-0.0892502 0.035638914 0.12219819 0.0071403957 0.057866078 -0.09235477 -0.0726516 -0.04250189
-0.100428544 0.055423293 0.06932416 -0.081465974 -0.05583375 0.13108082 -0.27506992 0.15882777
0.042495407 -0.03625494 -0.0054367576 -0.032516327 -0.018377358 -0.023246383 0.038522758 -0.05002093
-0.018760128 -0.027998555 -0.0979683 0.0013199896 -0.08644196 -0.3044652 -0.017212063 -0.0075818426
00000000: cfc8 b6bd 1cfa 113d 0b43 fa3d fbf9 e93b
00000010: fb04 6d3d 7f24 bdbd 5dca 94bd 7616 2ebd
00000020: 7bad cdbd 8903 633d d3f9 8d3d a2d7 a6bd
00000030: eeb1 64bd 0d3a 063e f7d5 8cbe bfa3 223e
00000040: aa0f 2e3d 0f80 14bd d426 b2bb d72f 05bd
00000050: 1d8c 96bc 336f bebc 0aca 1d3d bfe2 4cbd
00000060: d7ae 99bc 3a5d e5bc 9ba3 c8bd 8003 ad3a
00000070: 7b08 b1bd dde2 9bbe 5000 8dbc 1b71 f8bb

traj_subgraphNet.sublayer3.mlp.2.weight f4 [64, 32]
-0.050208572 0.0943686 0.2554325 -0.057142332 -0.04079851 -0.261989 0.12994301 0.0125993155
0.25045738 -0.13140585 0.30063954 0.05068103 0.1767382 0.14878964 -0.3286814 0.29784638
-0.185533 0.19438834 -0.15642823 -0.010075297 0.12144627 -0.12199983 0.03400807 -0.1166253
0.17362303 0.11835094 0.15702206 -0.00026935316 -0.12565027 -0.15450735 0.05110033 -0.13468336
0.13986982 -0.08517554 0.16722947 0.12471537 0.0971359 -0.055003673 0.10558048 0.083538465
0.026502272 -0.12764741 -0.024202516 -0.10982767 -0.14157428 -0.1696852 -0.1844517 0.012327234
0.1068478 0.2688683 0.09230006 0.014348801 0.08340533 0.05418775 0.07203617 -0.17809035
-0.035005447 0.06968724 0.009615169 0.12795132 0.14478566 -0.35583502 0.11912816 0.019247677
0.027617937 0.12689747 0.34469128 0.08458635 -0.08906638 -0.0888217 0.09574167 0.00078061153
0.1542026 0.010637794 0.14528981 0.091213875 0.15655242 -0.17228921 -0.17127544 0.11511666
-0.073032774 0.10227274 0.0032981008 0.027267335 -0.38920414 -0.10689816 0.066249944 0.057088207
-0.16425341 -0.015506235 -0.016032077 -0.10400219 0.042846758 -0.25093463 0.2579098 0.047274645
-0.030398147 0.14766961 0.052144542 0.13966325 -0.044502508 -0.15002225 -0.069808036 0.108874924
-0.11535881 0.06968467 0.13005522 0.04984434 0.0809582 -0.12319039 -0.12988913 0.019092925
-0.11816868 -0.071100734 -0.0877791 -0.08266439 -0.08759339 0.020347586 0.24342714 0.05942737
-0.09014003 -0.093615 0.0143309925 -0.0136015415 -0.15257 -0.4943427 0.29810748 -0.05900798
-0.1781505 0.11700211 0.068575986 0.06458696 -0.10525492 0.31255502 -0.09868917 0.009598986
-0.24097809 0.17221935 0.2204208 0.16142237 -0.02121679 -0.07194731 0.21491328 0.02909943
-0.106038004 0.25557005 0.12839215 -0.15476398 -0.092435226 -0.00724358 -0.08323287 -0.06782718
-0.02135847 0.1207402 0.091579 0.014519353 0.038091328 0.25852334 0.09562943 -0.10643368
-0.11242631 0.18224423 0.05472484 -0.124186665 -0.09992544 -0.13956308 0.15207368 -0.053205658
-0.05593605 -0.0678805 0.050557856 0.13762528 0.124255724 -0.06939954 -0.29876053 0.07785315
-0.019413754 0.085777156 0.037320245 0.13903981 -0.08551515 0.06634033 0.25582537 -0.021244474
0.012954117 0.038666725 0.025143256 0.11703293 0.01406297 -0.38929364 0.35624483 -0.10360158
-0.1074896 -0.12906475 0.22272693 0.12867935 -0.040736724 0.3687176 -0.13095461 0.13058326
-0.11549387 0.051212154 -0.020216865 0.024460442 -0.0007350691 0.14798082 0.41504276 -0.1551486
-0.17176044 0.14750135 -0.14829311 -0.056872733 -0.33632398 0.11259959 0.45530197 -0.023364259
-0.098661765 -0.15588689 -0.14028835 -0.08204136 -0.121464394 0.04379285 0.51856226 0.060354628
0.16598897 0.11888328 0.08813693 -0.14626502 0.00913646 -0.21349601 0.15166487 0.12430283
-0.1323983 0.041292768 0.09405383 0.022425523 -0.048121892 -0.19884816 -0.4246724 0.2541966
0.110697925 0.18331687 0.09493514 -0.11404648 -0.36886728 0.027729848 0.1760604 0.012069722
0.16130689 0.04159838 -0.16331686 0.044148184 -0.047646698 -0.534098 0.23896337 -0.086705334
00000000: 81a7 4dbd 5344 c13d 0cc8 823e 140e 6abd
00000010: 571c 27bd 6c23 86be c80f 053e 5c6d 4e3c
00000020: f33b 803e 418f 06be 6ded 993e e996 4f3d
00000030: dcfa 343e 505c 183e ee48 a8be 527f 983e
00000040: 5dfc 3dbe bd0d 473e b92e 20be dc12 25bc
00000050: d2b8 f83d 0cdb f9bd 0c4c 0b3d 3fd9 eebd
00000060: 3cca 313e fa61 f23d 64ca 203e f837 8db9
00000070: 77aa 00be 2d37 1ebe 944e 513d 6fea 09be
00000080: 093a 0f3e 8370 aebd 343e 2b3e c66a ff3d
00000090: 30ef c63d 884b 61bd 943a d83d 3716 ab3d
000000a0: 4b1b d93c 01b6 02be 5b44 c6bc 54ed e0bd
000000b0: d9f8 10be f5c1 2dbe e8e0 3cbe 2bf8 493c
000000c0: 05d3 da3d 1ba9 893e d007 bd3d 3c17 6b3c
000000d0: 6ad0 aa3d f9f3 5d3d b387 933d 515d 36be
000000e0: df61 0fbd 2fb8 8e3d f188 1d3c ac05 033e
000000f0: b142 143e 0230 b6be 77f9 f33d 4ead 9d3c
00000100: 033f e23c 69f1 013e 607b b03e 9c3b ad3d
00000110: 6f68 b6bd 27e8 b5bd 3514 c43d f4a1 4c3a
00000120: 49e7 1d3e 244a 2e3c dac6 143e 57ce ba3d
00000130: 474f 203e 956c 30be d462 2fbe 49c2 eb3d
00000140: 3592 95bd 5f74 d13d f324 583b bf5f df3c
00000150: c445 c7be 6ced dabd 0dae 873d 53d5 693d
00000160: 0c32 28be dd0d 7ebc b455 83bc 1aff d4bd
00000170: 1580 2f3d 817a 80be c10c 843e 0fa3 413d
00000180: 8905 f9bc b436 173e 8495 553d e203 0f3e
00000190: 4348 36bd 6f9f 19be 84f7 8ebd d1f9 de3d
000001a0: 3d41 ecbd d6b6 8e3d 322d 053e 9429 4c3d
000001b0: 6acd a53d 3e4b fcbd a801 05be c468 9c3c
000001c0: 6c02 f2bd 439d 91bd 87c5 b3bd f34b a9bd
000001d0: 2a64 b3bd fbaf a63c f744 793e 1d6a 733d
000001e0: 569b b8bd 39b9 bfbd 8acc 6a3c 00d9 5ebc
000001f0: 4f3b 1cbe 7d1a fdbe 8ba1 983e 5ab2 71bd
00000200: 166d 36be cd9e ef3d 9171 8c3d 2b46 843d
00000210: e48f d7bd 3607 a03e 8c1d cabd 1145 1d3c
00000220: f6c2 76be 455a 303e fdb5 613e e84b 253e
00000230: d5ce adbc 1c59 93bd 3a12 5c3e ee61 ee3c
00000240: 742a d9bd 14da 823e 3b79 033e 737a 1ebe
00000250: ae4e bdbd 8e5b edbb ff75 aabd fae8 8abd
00000260: f5f7 aebc a346 f73d c58d bb3d 95e2 6d3c
00000270: a705 1c3d 2c5d 843e 5dd9 c33d e7f9 d9bd
00000280: c43f e6bd 3b9e 3a3e 2727 603d 9455 febd
00000290: b6a5 ccbd a0e9 0ebe 34b9 1b3e 2dee 59bd
000002a0: 331d 65bd ee04 8bbd c115 4f3d a4ed 0c3e
000002b0: c979 fe3d 5921 8ebd 24f7 98be 7971 9f3d
000002c0: 9809 9fbc efab af3d 1ddd 183d 7460 0e3e
000002d0: 9122 afbd 70dd 873d 8bfb 823e e408 aebc
000002e0: 813d 543c 0061 1e3d 3bf9 cd3c f6ae ef3d
000002f0: 5f68 663c 7f51 c7be b965 b63e 112d d4bd
00000300: 8223 dcbd 8d29 04be 8712 643e 85c4 033e
00000310: 8ddb 26bd 8ec8 bc3e f718 06be 9eb7 053e
00000320: 0d88 ecbd d6c3 513d d79d a5bc 4461 c83c
00000330: a7b1 40ba 4988 173e 7c80 d43e 46df 1ebe
00000340: f8e1 2fbe 980a 173e 26da 17be 62f3 68bd
00000350: a832 acbe 9d9a e63d 571d e93e 6766 bfbc
00000360: 2e0f cabd d0a0 1fbe c0a7 0fbe 4d05 a8bd
00000370: 53c2 f8bd 2260 333d 7fc0 043f 6a36 773d
00000380: 03f9 293e 1479 f33d 2281 b43d 7fc6 15be
00000390: 17b1 153c b39e 5abe 094e 1b3e 7b92 fe3d
000003a0: 6c93 07be 9b22 293d 4b9f c03d bbb5 b73c
000003b0: 761b 45bd da9e 4bbe a96e d9be 0f26 823e
000003c0: 98b5 e23d 6bb7 3b3e 5b6d c23d 3391 e9bd
000003d0: 2cdc bcbe b529 e33c 2d49 343e 15c0 453c
000003e0: a22d 253e 1063 2a3d 893c 27be bad4 343d
000003f0: 2f29 43bd a6ba 08bf d0b2 743e 9192 b1bd

traj_subgraphNet.sublayer3.mlp.2.bias f4 [64]
0.3309441 0.035392314 0.3443699 0.4268395 0.056728654 0.4376492 0.26893017 0.041186407
0.17512944 0.2529018 0.3855052 0.18379405 0.22391877 0.50217414 -0.018481297 -0.104482286
0.019579696 0.22435139 0.2006184 0.36486208 0.60504293 0.04987531 0.029360665 -0.0016836755
-0.2797022 -0.0860719 0.1433365 -0.0047627552 0.12937868 0.10922722 0.290413 0.15936972
0.8697715 0.24562173 0.3429717 -0.014712146 0.022412077 0.3921509 0.10318185 0.37023124
0.3134064 0.11626283 0.14752676 0.24576351 0.3436223 0.14450541 -0.13735647 0.12131054
0.30105278 0.10420063 0.35075456 -0.14391586 0.18791685 -0.3354337 0.18815626 -0.074520364
0.5565066 0.31720635 0.68376255 -0.30745554 0.367679 0.11975326 -0.049345154 0.20692673
00000000: 8171 a93e 88f7 103d 4051 b03e b58a da3e
00000010: 4e5c 683d 8e13 e03e 37b1 893e 14b3 283d
00000020: 2255 333e 587c 813e f060 c53e 8234 3c3e
00000030: f64a 653e 7c8e 003f 1766 97bc cffa d5bd
00000040: 9965 a03c 5fbc 653e e96e 4d3e 34cf ba3e
00000050: 18e4 1a3f 0e4a 4c3d c785 f03c c6ae dcba
00000060: 2035 8fbe 7746 b0bd cec6 123e e310 9cbb
00000070: d87b 043e 85b2 df3d 03b1 943e d131 233e
00000080: 58a9 5e3f 4384 7b3e fd99 af3e 360b 71bc
00000090: 8899 b73c 01c8 c83e 0151 d33d f38e bd3e
000000a0: ce76 a03e 351b ee3d 4111 173e 6ea9 7b3e
000000b0: 43ef af3e 3af9 133e 2da7 0cbe a971 f83d
000000c0: 9723 9a3e 2467 d53d 1a96 b33e ae5e 13be
000000d0: 466d 403e f7bd abbe 09ac 403e 229e 98bd
000000e0: 3777 0e3f df68 a23e 100b 2f3f d06a 9dbe
000000f0: 6c40 bc3e 3241 f53d 251e 4abd 9ae4 533e

map_subgraphNet.sublayer1.mlp.0.weight f4 [32, 4]
-0.3121652 0.3078797 -0.408971 0.59068215 0.091886416 -0.07497152 -0.08219133 0.22024281
0.26257738 -0.44080165 -0.11212614 -0.2557575 0.31164652 0.21377501 0.30717665 0.25531238
0.20889753 -0.04754247 0.006986175 0.21712194 -0.07710437 -0.32408333 0.5319011 0.33548644
0.07604818 0.47754657 0.21995893 -0.4898604 -0.09610303 -0.1448854 0.1919573 0.5684079
0.18158066 -0.6361312 -0.2665727 -0.24591912 0.3138465 0.34944093 -0.14973868 -0.4940462
-0.17822555 -0.19827735 0.05724219 0.7065175 0.2932971 0.59670943 -0.4657656 0.3766542
0.40740964 -0.5387786 -0.43286526 -0.15323919 0.060539994 -0.031418633 0.13137878 0.11841146
-0.45793247 -0.053358022 0.5822242 0.42919302 0.57818806 -0.35476932 0.56329113 -0.3447198
0.4972166 -0.45742792 -0.26669583 0.31156218 -0.23008882 0.19708996 -0.46208423 0.074094035
-0.06826247 -0.6694092 -0.14473414 -0.5967771 0.5246278 0.5709332 0.39537582 -0.09798647
0.3078919 -0.42995483 -0.3334911 -0.41415972 0.054157678 0.17256859 0.46965146 0.06396169
-0.24795948 -0.15302739 0.3832275 0.3278223 -0.49581516 -0.37420133 0.13048577 -0.87385327
-0.14562231 -0.22438203 0.21026191 0.5821463 -0.33992872 0.41225404 -0.49292436 -0.06134518
0.382112 0.53785443 -0.6473748 0.1855059 -0.3107421 -0.049590096 0.7151345 -0.83116907
0.5148665 -0.90908176 -0.37702107 0.37591264 0.2538554 -0.55247843 0.007762156 0.3287491
0.05458828 0.57866836 0.26921228 -0.11959124 -0.057595573 0.27388784 0.07963333 -0.1803603
00000000: 1ed4 9fbe 68a2 9d3e a664 d1be f236 173f
00000010: f22e bc3d ab8a 99bd ee53 a8bd 5587 613e
00000020: 8b70 863e c1b0 e1be 64a2 e5bd a6f2 82be
00000030: 2290 9f3e d6e7 5a3e 4246 9d3e 4eb8 823e
00000040: 3ce9 553e e5bb 42bd 49ec e43b 3755 5e3e
00000050: e5e8 9dbd 40ee a5be ac2a 083f e1c4 ab3e
00000060: 26bf 9b3d fc80 f43e ea3c 613e fbce fabe
00000070: aad1 c4bd d75c 14be 7490 443e 2e83 113f
00000080: 48f0 393e 7fd9 22bf 387c 88be 39d2 7bbe
00000090: 7db0 a03e ece9 b23e 1955 19be a0f3 fcbe
000000a0: c280 36be 3809 4bbe c976 6a3d 55de 343f
000000b0: 0a2b 963e f3c1 183f d478 eebe d2d8 c03e
000000c0: ff97 d03e 65ed 09bf 84a0 ddbe bcea 1cbe
000000d0: c9f8 773d d3b0 00bd 2988 063e b581 f23d
000000e0: 2076 eabe f18d 5abd a50c 153f 30bf db3e
000000f0: 2204 143f 53a4 b5be d933 103f 1d7f b0be
00000100: 2d93 fe3e fe33 eabe 5b8c 88be 1485 9f3e
00000110: 679c 6bbe f3d1 493e 4e96 ecbe 9dbe 973d
00000120: 32cd 8bbd 675e 2bbf 3035 14be 62c6 18bf
00000130: 024e 063f ae28 123f b36e ca3e 21ad c8bd
00000140: 02a4 9d3e 0a23 dcbe 58bf aabe be0c d4be
00000150: 71d4 5d3d d2b5 303e 2876 f03e 59fe 823d
00000160: 17e9 7dbe 36b3 1cbe 6536 c43e 53d8 a73e
00000170: 7cdb fdbe 5197 bfbe 109e 053e d9b4 5fbf
00000180: 041e 15be 67c4 65be e64e 573e 8a07 153f
00000190: 230b aebe f612 d33e 9560 fcbe 1545 7bbd
000001a0: 2fa4 c33e d4b0 093f 5bba 25bf 42f5 3d3e
000001b0: 9719 9fbe fc1e 4bbd 0e13 373f 7fc7 54bf
000001c0: 4ace 033f 95b9 68bf e808 c1be 9f77 c03e
000001d0: 56f9 813e 3a6f 0dbf af59 fe3b cd51 a83e
000001e0: f697 5f3d 9c23 143f 31d6 893e 41ec f4bd
000001f0: 56e9 6bbd 073b 8c3e cd16 a33d 5fb0 38be

map_subgraphNet.sublayer1.mlp.0.bias f4 [32]
0.071119435 0.20325646 0.046870034 -0.34119305 -0.12773933 0.4683391 0.1245586 0.108787
-0.0054899515 -0.2021568 0.40452424 0.05901743 -0.1202937 -0.17295542 0.30989778 -0.24180424
-0.2540384 -0.3153378 -0.20586777 0.31836236 0.40307087 -0.032611743 0.28778112 -0.18906446
-0.01928076 -0.11281715 0.2844839 0.07825 0.45312753 0.18155117 -0.2226894 -0.521603
00000000: 11a7 913d 7622 503e cbfa 3f3d dbb0 aebe
00000010: 19ce 02be 24ca ef3e 9418 ff3d b8cb de3d
00000020: 0de5 b3bb 3102 4fbe cd1d cf3e 43bc 713d
00000030: 8b5c f6bd 3a1b 31be ecaa 9e3e 889b 77be
00000040: 5211 82be f573 a1be 00cf 52be 6400 a33e
00000050: 4e5f ce3e e493 05bd 0c58 933e 1d9a 41be
00000060: aff2 9dbc ae0c e7bd e0a7 913e 8941 a03d
00000070: 5500 e83e 8de8 393e b108 64be c687 05bf
